…
2026-07-19 17:25:35,121 INFO: Dataset [PairedImageDataset] - B100 is built.
2026-07-19 17:25:35,121 INFO: Number of test images in B100: 100
2026-07-19 17:25:35,125 INFO: Dataset [PairedImageDataset] - Urban100 is built.
2026-07-19 17:25:35,125 INFO: Number of test images in Urban100: 100
2026-07-19 17:25:35,129 INFO: Dataset [PairedImageDataset] - Manga109 is built.
2026-07-19 17:25:35,129 INFO: Number of test images in Manga109: 109
2026-07-19 17:25:35,316 INFO: Network [MambaIRv2Light] is created.
2026-07-19 17:25:36,703 INFO: Network: MambaIRv2Light, with parameters: 930,347
2026-07-19 17:25:36,703 INFO: MambaIRv2Light(
  (conv_first): Conv2d(3, 48, kernel_size=(3, 3), stride=(1, 1), padding=(1, 1))
  (patch_embed): PatchEmbed(
    (norm): LayerNorm((48,), eps=1e-05, elementwise_affine=True)
  )
  (patch_unembed): PatchUnEmbed()
  (layers): ModuleList(
    (0-3): 4 x ASSB(
      (patch_embed): PatchEmbed()
      (patch_unembed): PatchUnEmbed()
      (residual_group): BasicBlock(
        dim=48, input_resolution=(64, 64), depth=5
        (layers): ModuleList(
          (0-4): 5 x AttentiveLayer(
            (softmax): Softmax(dim=-1)
            (lrelu): LeakyReLU(negative_slope=0.01)
            (sigmoid): Sigmoid()
            (norm1): LayerNorm((48,), eps=1e-05, elementwise_affine=True)
            (norm2): LayerNorm((48,), eps=1e-05, elementwise_affine=True)
            (norm3): LayerNorm((48,), eps=1e-05, elementwise_affine=True)
            (norm4): LayerNorm((48,), eps=1e-05, elementwise_affine=True)
            (wqkv): Linear(in_features=48, out_features=144, bias=True)
            (win_mhsa): WindowAttention(
              dim=48, window_size=(16, 16), num_heads=4, qkv_bias=True
              (proj): Linear(in_features=48, out_features=48, bias=True)
              (softmax): Softmax(dim=-1)
            )
            (assm): ASSM(
              (out_norm): LayerNorm((48,), eps=1e-05, elementwise_affine=True)
              (out_proj): Linear(in_features=48, out_features=48, bias=True)
              (in_proj): Sequential(
                (0): Conv2d(48, 48, kernel_size=(1, 1), stride=(1, 1))
              )
              (CPE): Sequential(
                (0): Conv2d(48, 48, kernel_size=(3, 3), stride=(1, 1), padding=(1, 1), groups=48)
              )
              (attn): PolaAttention(
                (qkvg): Linear(in_features=48, out_features=192, bias=True)
                (lepe): Conv2d(48, 48, kernel_size=(5, 5), stride=(1, 1), padding=(2, 2), groups=48)
                (proj): Linear(in_features=48, out_features=48, bias=True)
                (relu): ReLU()
              )
              (RoPE_linear): RoPE()
            )
            (convffn1): GatedMLP(
              (fc1): Linear(in_features=48, out_features=48, bias=True)
              (act): GELU(approximate='none')
              (sg): Gate(
                (norm): LayerNorm((24,), eps=1e-05, elementwise_affine=True)
                (conv): Conv2d(24, 24, kernel_size=(5, 5), stride=(1, 1), padding=(2, 2), groups=24)
              )
              (fc2): Linear(in_features=24, out_features=48, bias=True)
              (drop): Dropout(p=0.0, inplace=False)
            )
            (convffn2): GatedMLP(
              (fc1): Linear(in_features=48, out_features=48, bias=True)
              (act): GELU(approximate='none')
              (sg): Gate(
                (norm): LayerNorm((24,), eps=1e-05, elementwise_affine=True)
                (conv): Conv2d(24, 24, kernel_size=(5, 5), stride=(1, 1), padding=(2, 2), groups=24)
              )
              (fc2): Linear(in_features=24, out_features=48, bias=True)
              (drop): Dropout(p=0.0, inplace=False)
            )
          )
        )
      )
      (conv): Conv2d(48, 48, kernel_size=(3, 3), stride=(1, 1), padding=(1, 1))
    )
  )
  (norm): LayerNorm((48,), eps=1e-05, elementwise_affine=True)
  (conv_after_body): Conv2d(48, 48, kernel_size=(3, 3), stride=(1, 1), padding=(1, 1))
  (upsample): UpsampleOneStep(
    (0): Conv2d(48, 27, kernel_size=(3, 3), stride=(1, 1), padding=(1, 1))
    (1): PixelShuffle(upscale_factor=3)
  )
)
2026-07-19 17:25:36,731 INFO: Loading MambaIRv2Light model from /data/hly/tpami-re/sr_ckpt/mambairv2_polapp_lightSR_x3.pth, with param key: [params].
2026-07-19 17:25:36,807 INFO: Model [MambaIRv2LightModel] is created.
2026-07-19 17:25:36,807 INFO: Testing Set5...
2026-07-19 17:25:39,170 INFO: Validation Set5
…
